…
   "cell_type": "markdown",
   "metadata": {},
   "source": [
    "### 3.0 Build, Evaluate & Predict LSTM Model"
   ]
  },
  {
   "cell_type": "code",
   "execution_count": 39,
   "metadata": {
    "scrolled": true
   },
   "outputs": [
    {
     "name": "stdout",
     "output_type": "stream",
     "text": [
      "Model: \"sequential_4\"\n",
      "_________________________________________________________________\n",
      "Layer (type)                 Output Shape              Param #   \n",
      "=================================================================\n",
      "lstm_10 (LSTM)               (None, 8, 10)             480       \n",
      "_________________________________________________________________\n",
      "dropout_10 (Dropout)         (None, 8, 10)             0         \n",
      "_________________________________________________________________\n",
      "lstm_11 (LSTM)               (None, 8, 10)             840       \n",
      "_________________________________________________________________\n",
      "dropout_11 (Dropout)         (None, 8, 10)             0         \n",
      "_________________________________________________________________\n",
      "lstm_12 (LSTM)               (None, 10)                840       \n",
      "_________________________________________________________________\n",
      "dropout_12 (Dropout)         (None, 10)                0         \n",
      "_________________________________________________________________\n",
      "dense_4 (Dense)              (None, 4)                 44        \n",
      "=================================================================\n",
      "Total params: 2,204\n",
      "Trainable params: 2,204\n",
      "Non-trainable params: 0\n",
      "_________________________________________________________________\n",
      "Epoch 1/250\n",
      "870/870 [==============================] - 16s 18ms/step - loss: 0.1662 - mae: 0.1599\n",
      "Epoch 2/250\n",
…
    "print('total_sequences_stepsin shape: ', total_sequences_stepsin.shape)\n",
    "print('total_sequences_stepsout shape: ', total_sequences_stepsout.shape)\n"
   ]
  },
  {
   "cell_type": "code",
   "execution_count": 21,
   "metadata": {
    "scrolled": true
   },
   "outputs": [
    {
     "name": "stdout",
     "output_type": "stream",
     "text": [
      "Model: \"sequential_2\"\n",
      "_________________________________________________________________\n",
      "Layer (type)                 Output Shape              Param #   \n",
      "=================================================================\n",
      "lstm_4 (LSTM)                (None, 8, 10)             720       \n",
      "_________________________________________________________________\n",
      "dropout_4 (Dropout)          (None, 8, 10)             0         \n",
      "_________________________________________________________________\n",
      "lstm_5 (LSTM)                (None, 8, 10)             840       \n",
      "_________________________________________________________________\n",
      "dropout_5 (Dropout)          (None, 8, 10)             0         \n",
      "_________________________________________________________________\n",
      "lstm_6 (LSTM)                (None, 10)                840       \n",
      "_________________________________________________________________\n",
      "dropout_6 (Dropout)          (None, 10)                0         \n",
      "_________________________________________________________________\n",
      "dense_2 (Dense)              (None, 4)                 44        \n",
      "=================================================================\n",
      "Total params: 2,444\n",
      "Trainable params: 2,444\n",
      "Non-trainable params: 0\n",
      "_________________________________________________________________\n",
      "Epoch 1/50\n",
      "150/150 [==============================] - 7s 44ms/step - loss: 0.3843 - mae: 0.3727 - mape: 76.6184\n",
…
